model.pt (torch, 20127 bytes, 6 tensors)

fc1.weight f4 [128, 1]
00000000: 0054 f5bb 2f82 743e 16b3 52bf 8066 3cbf
00000010: f432 c5be 0ec9 363e b249 833d fc00 253f
00000020: 70bf b5bd 47cd f93d acbb 9abe fc80 cf3a
00000030: e6b8 73bf 74ba 17bf da80 3dbf b558 61bd
00000040: 7c85 833e b0d8 c13e 9b12 4bbf fcf4 debe
00000050: 6be5 8e3e 58a1 423f 48bd 52be 3a83 113f
00000060: 400d 25be 8386 02bb 8306 413f ce7b 6dbf
00000070: b565 44bf e09e 81be dc93 c7be 8618 213f
00000080: 1aef 25bf c0b0 ebbe 1ada 32bf 76c2 6fbf
00000090: 0470 15bf b969 4f3f c53d 553e bd8c 763e
000000a0: e08f f4bb 3a3f 03bf 7b23 c73d 9e06 6fbf
000000b0: fe38 5bbf c6f9 03bf d84a 023f 17d9 e03e
000000c0: c811 e3be 20cb 13bd c587 0f3f 2d54 133f
000000d0: 9b8e 033e f796 153e f7e8 c73e c0bb 16bf
000000e0: d30e 3e3d 6c7a 46bf 186e 31bf d23e 04bf
000000f0: 63b8 973e 70af 5d3e ed34 47bf cbb3 213e
00000100: 084c a53e 203f 01be ac2d b3bc 9b83 3c3e
00000110: fb77 da3e 0268 553f 9647 45bf eca1 bbbe
00000120: 71fa a23e 3bbc 2a3f 3655 473f cd0f 453f
00000130: ca03 2b3e f89c 5ebf 0c36 223e 9678 4bbf
00000140: 8c94 6ebf 0714 303f b7a9 3a3f fe5d 7fbf
00000150: 6744 f93d c880 2cbe b882 28be 1c5f eabe
00000160: dd8d 533e 34a1 17bf c663 8b3e d610 c33e
00000170: 7252 1a3f ea46 573e 4a5f 7dbf 0011 26bf
00000180: 09e0 a93e cad8 a43d 96b3 47bf e868 13bf
00000190: bc9a 0b3f 2817 233f b03e dfbe 3aeb 323e
000001a0: 78dd 73bf 4079 a5bb 78c8 40bf a277 45bf
000001b0: 6283 41be fd83 353e f4ad d1be dcea f33e
000001c0: 38c9 1bbf ca73 483f 9cd1 d23e 64e1 57bf
000001d0: 427f d5be 80d2 383d 5c6c a53a 1f42 5b3e
000001e0: 86c3 3f3e 27c7 d53d ccd1 f9be 0aae bb3e
000001f0: 5691 75bf a0bb 17bf 3c2b 80be ec66 f9be
-0.00748682 0.23877786 -0.82304513 -0.735939 -0.38515437 0.17850134 0.06410541 0.6445463
-0.088744044 0.12197357 -0.30221307 0.0015831287 -0.9520401 -0.5926888 -0.74024737 -0.05501624
0.25687778 0.37860632 -0.79325265 -0.43546283 0.27909407 0.7602744 -0.20580018 0.5684086
-0.16118336 -0.00199166 0.7540056 -0.92767036 -0.7671769 -0.25316525 -0.38979995 0.62928045
-0.64817965 -0.46033287 -0.69864047 -0.936561 -0.5837405 0.81020695 0.20824344 0.24077125
-0.0074634403 -0.5126835 0.09723564 -0.9336947 -0.8563384 -0.51553 0.5089545 0.43915626
-0.44349504 -0.036082387 0.5606654 0.5755032 0.12847368 0.1460837 0.39044926 -0.58880234
0.046400856 -0.7753055 -0.69308615 -0.51658356 0.29632863 0.21648955 -0.77815133 0.15791242
0.3228457 -0.12621737 -0.021872364 0.18409579 0.42669663 0.8336183 -0.77062356 -0.36646974
0.31831697 0.66693467 0.77864397 0.76977235 0.16700664 -0.86958265 0.1584093 -0.79480875
-0.93195415 0.6878056 0.72915214 -0.99752796 0.1217125 -0.16846001 -0.16456115 -0.45775688
0.20659585 -0.5923035 0.2722456 0.38098782 0.6028205 0.21023145 -0.98973525 -0.6486969
0.33178738 0.08049162 -0.780084 -0.5758195 0.5453298 0.6370721 -0.43602514 0.17472544
-0.9525981 -0.0050498545 -0.7530589 -0.7713567 -0.18897775 0.17726131 -0.40953028 0.4764012
-0.6085391 0.7830168 0.41175544 -0.84328294 -0.41698653 0.045122623 0.0012620795 0.21411942
0.1872693 0.10438376 -0.48792875 0.3665622 -0.9592489 -0.5927067 -0.25032985 -0.48711336

fc1.bias f4 [128]
00000000: 5c1d b3be bbd0 0fc0 00d2 59be 7d0f ebbd
00000010: 76c6 26bf 77c3 643e e9b6 a03f b000 803d
00000020: eaa6 acbd 004e 97bf 82d3 f9bd 88fc 383f
00000030: df55 4c3f c132 e23e 109e 2a3f b8b5 28be
00000040: 3615 19c0 6c0a 2bbf c2ac 4a3e 006b d4bb
00000050: 1bb7 4cbf 6679 56bf 0094 6fbf 151c 84bf
00000060: 70b4 4fbe f400 7d3f c69c 403f 02e5 76bf
00000070: 1ee1 813e 8a52 48bf f07b 58be 3c92 ecbe
00000080: f03c 45be 100e 49be bab8 65bf 440a 5dbf
00000090: 283c 20be c78e 633e bc8e 89bf e103 b33e
000000a0: e7c9 75bf c036 8abd 93c3 aa3f 38d7 d0be
000000b0: 3cd0 393e ce2b 64bd 771d c5bf 20d7 4f3f
000000c0: f053 ecbd 708f e4be 626b 5f3f c2bb 8ebf
000000d0: 19df 86be 6b45 a8bf f181 ad3e 1d34 84bd
000000e0: 1e43 4e3f 71b5 fcbd 003f 76be 505a 57be
000000f0: ef9a e9bf 1d07 533f 3f8b dc3e e70f 893f
00000100: 4056 d1bf de7d 0fbe d2d4 43bf a352 e3bf
00000110: 82f9 27bf ed44 0c3f c48d 18bf 00ba b2bc
00000120: c964 043c 9bbc 853f 543a 93bf b787 52bf
00000130: 526c c5bf 8d32 da3e 60d7 bbbf c26e 773e
00000140: 1079 65bd 405d 073f 7aaa 833e 086d 4abe
00000150: a2cf 8e3e 30d3 69be 003e e6bb 2e06 41bc
00000160: 5571 f6bf 7a2d 06bf 5c6a a53f 92b6 81bf
00000170: 4a7a fb3d 060a aa3f a3e9 f1bd 28a3 b9bd
00000180: 1664 fabf d166 503f 0858 36bf a856 91be
00000190: 126c 80bf 7cc5 e7bd 2e14 90bd b575 803f
000001a0: c1ed 05be 8445 c03f 9977 ab3c c6d8 21bf
000001b0: 74ab a1bd 2309 d4bf 9cff d8be e7b8 5d3e
000001c0: e91a fdbc 7bea 753f 6c28 d8bf df6c 6fbd
000001d0: 54bc 83bd 5a93 77bf 3c0d 833f c98e 03c0
000001e0: 07f7 343d af89 7bbf 0ad4 06bf 7c61 0a3f
000001f0: 336c e03e e8aa 95be 56fc 17bf 845b bdbe
-0.34983337 -2.247115 -0.21271515 -0.114775635 -0.6514658 0.22340189 1.255582 0.06250131
-0.08430274 -1.1820679 -0.12198545 0.7226033 0.7981853 0.44179347 0.66647434 -0.1647557
-2.3919196 -0.6681278 0.19792464 -0.006482482 -0.79966897 -0.8377899 -0.93585205 -1.032107
-0.20283675 0.9882958 0.7523922 -0.9644319 0.25367063 -0.78250945 -0.21141028 -0.46205318
-0.19261527 -0.1963427 -0.89734995 -0.8634379 -0.15647948 0.22222434 -1.0746684 0.34963897
-0.96011204 -0.06748724 1.3340935 -0.407892 0.18145841 -0.055705838 -1.5399617 0.8118763
-0.11539447 -0.44640684 0.8727323 -1.1151049 -0.26342085 -1.3146185 0.338882 -0.06455252
0.8057116 -0.12339295 -0.2404747 -0.21030545 -1.8250407 0.8243273 0.43074986 1.0707978
-1.6354446 -0.14012858 -0.76496613 -1.7759594 -0.65615094 0.5479267 -0.5959132 -0.021817207
0.00808067 1.0448183 -1.1502175 -0.82238334 -1.5423682 0.42616692 -1.4675102 0.24163345
-0.056023657 0.52876663 0.25716 -0.19768155 0.27892786 -0.22834468 -0.007026434 -0.0117812585
-1.9253336 -0.5241314 1.2923083 -1.0133841 0.12279184 1.3284309 -0.11812141 -0.09064323
-1.9561794 0.81406885 -0.71228075 -0.28386426 -1.003298 -0.11316964 -0.07035099 1.0035921
-0.13078977 1.5021214 0.020931052 -0.63221395 -0.0789403 -1.6565288 -0.42382514 0.21652566
-0.03089662 0.96060914 -1.6887336 -0.058453437 -0.06432405 -0.96709216 1.0238414 -2.05559
0.044180896 -0.98256963 -0.52667296 0.54055 0.4383255 -0.29231954 -0.5936941 -0.36983883

fc2.weight f4 [32, 128]
00000000: c16a b3bd 8540 b0be c1df 2dbd 5821 153e
00000010: 2c92 50bd 4f4c 9e3d a66e 303f 74c0 a13d
00000020: 5ebc c0bc 4d93 b2be f43d 5a3d 59c5 c73e
00000030: 95eb 853e c563 463e a73f 4e3e 8c0f 38bd
00000040: 8ab9 01bf e5e2 febc 7cd0 e63d 7864 a1bd
00000050: 93d1 00bc 4b96 cfbd 88be 24bc 560f 6abd
00000060: 008b 383b a000 b83e 2164 eb3b 8f49 903d
00000070: 645e 3f3e 972d 963d 78bd f2bc d34d c03b
00000080: 4894 a5bc 60cd 80bb 5f7f 5cbd 34e2 f43c
00000090: b8ed e43c 906b 043d f5f9 02be 2b23 7f3c
000000a0: a352 8c3a 52c1 86bd b024 c53e 3a79 f3bc
000000b0: 83e1 023e 7746 a93d e84c 2ebe f895 043e
000000c0: e831 8e3c aa67 86bd c9f7 053e 059d 43bc
000000d0: 8a58 3d3d bb58 0abf 50f9 353c 949c cf3d
000000e0: 003a 8e3e a303 fd3d 4c6c 093d ae1a 713d
000000f0: e0b5 8bbe 6e58 0e3e bd14 4b3e 3543 6a3e
00000100: 0a4a 25be 39f4 0e3e 7da5 04be bc05 fcbe
00000110: 80e0 6f37 3270 0a3e dec9 543d a00e 423c
00000120: 9ccc 913d abae 703d 8ce1 fdbd 60a7 f1bd
00000130: 21ac e2be aabe 673e 628e 3bbf 14a5 423e
00000140: 0083 063e c757 063e 1169 de3d d33e 8c3d
00000150: 89d9 553d e01b febc 2fa0 943d c67e c6bb
00000160: d909 b4be 4fbd a23d 3374 813e a0aa 9bbd
00000170: 233a 00bd 56d9 833e b45b a03d e958 d73d
00000180: b3aa 77be 1ba4 833e a89c 803c 3209 1a3d
00000190: b664 66bd 08e1 663d 5447 f0bd aac7 dd3e
000001a0: e094 a23d 2aaa 1a3f 8b7e 8a3d cbe8 8e3d
000001b0: 2dff 2d3d 3ddc 2fbf b704 913d 14d1 a6bc
000001c0: 9e5a fc3d 2239 a63d 80d1 33be fe65 7b3d
000001d0: 0aa8 b03c a2a3 30bd ef9c 953e 6f93 3abf
000001e0: 0b67 a13d 13cf babe 9994 813d 758b 073e
000001f0: 227c 843e d068 b9bc 3a4c 1f3d 8f46 a13d
00000200: d489 ef3c 37df e73c aac6 3b3d 8a0f 613d
00000210: e06b fdbc f889 90bc 7e62 4cbd 2539 a6bd
00000220: b315 4cbd cc90 e0bd 794a 8bbd fd83 f43d
00000230: 39b1 803d 80d1 24bc 93e8 113c 5058 073c
00000240: ed73 67bb d712 5bbd 1764 953c 8d5d a63d
00000250: d0dd c3bc cf34 02be 2140 ad3d 5e7f e73b
00000260: b5f5 03bd efda 29bc 8ad8 e1bd 50f2 62bc
00000270: 27b4 993d a058 6f3b 2905 80bd cb7e b7bd
00000280: 1c8c c4bc 04b2 8bbc e096 0a3c 7b69 a73d
00000290: c011 9b3b e0c2 eabd ea6d 63bd 08c9 90bc
000002a0: f295 333d c770 a5bd 7c62 9bbd 0686 86bd
000002b0: 8601 b73c ac70 023d 3b8a fbbd e7cf debc
000002c0: 2fa5 993d d0f6 bd3b cba3 f3bd 64d9 bbbd
000002d0: dfed 26bd 527e 02be f43d 84bc 8a57 a4bd
000002e0: af80 14be ade3 afbd 84e3 92bc 5a72 733d
000002f0: 6d29 13be d9be 5b3c 2350 ca3c 37f3 0bbd
00000300: b479 65bd 853a a3bd e51f 963d 5431 4cbc
00000310: 36c2 e33c 1851 7cbc 72f8 6ebd 6713 973d
00000320: 2287 62bd 069a 94bc d211 06be 020f afbd
00000330: a15d 16be e802 0dbd e4e1 27bd f31c 19bc
00000340: 58cf e63c 1390 4ebc d08c 43bd ea3b 72bd
00000350: 94ab 03be d063 dfbc 7aeb 1e3d 8d8e b23d
00000360: 1c36 17bc 6013 23bc 0419 eebc c14a 16be
00000370: fecc 0abe 611c 9abc 6f10 4dbd de2c 2e3d
00000380: b0c7 fabd 4da7 d4bd 881a 95bd 2eed 3c3d
00000390: 0970 8dbd 298f 023c 3e0e 603d 6128 df3d
000003a0: a044 3a3b b9f5 b2bd f46f 9dbc e875 403c
000003b0: 6ab9 d43d 1fd0 f9bd efec 973d c7ac 8ebd
000003c0: 32af 97bd 40ef dcbd 92b4 943c 0f8c a53d
000003d0: 1ebc b2bc 6258 7f3d d217 81bc 2f81 fdbb
000003e0: 95f6 713c 968d dcbd 64a5 e43c 98a7 c3bc
000003f0: c6f5 d5bc 9450 f23c a853 d0bc a2d5 5f3d
-0.08760596 -0.34424224 -0.042449716 0.14563501 -0.05092065 0.077293985 0.68918836 0.07898036
-0.02352732 -0.34878007 0.05328174 0.39017752 0.26156297 0.19373997 0.20141469 -0.0449367
-0.50673735 -0.031114051 0.11270234 -0.07880491 -0.007862466 -0.10136088 -0.010055192 -0.05714353
0.0028159022 0.35937977 0.007183567 0.0704528 0.18688351 0.07332914 -0.029631361 0.0058686524
-0.020212308 -0.0039307326 -0.053832408 0.029893018 0.027945384 0.032329142 -0.12790664 0.01557235
0.001070578 -0.06579842 0.38504553 -0.029720891 0.12781338 0.08265393 -0.17021525 0.12947834
0.017357782 -0.06562741 0.13082804 -0.011939292 0.046227016 -0.5404164 0.011106804 0.10137287
0.27778625 0.12354209 0.033550546 0.058863334 -0.27287197 0.13900921 0.1983213 0.228772
-0.16141525 0.13960351 -0.12953754 -0.49223125 1.4297781e-05 0.13519362 0.051950328 0.011844307
0.07119104 0.058760326 -0.12396535 -0.117995024 -0.4427195 0.22631326 -0.73264134 0.19008285
0.1313591 0.13119422 0.108598836 0.0684792 0.05220941 -0.031019151 0.07257115 -0.006057593
-0.35163763 0.07946264 0.25283965 -0.076009035 -0.031305443 0.25751752 0.07829991 0.10515005
-0.2418621 0.2571114 0.0156997 0.037606426 -0.05624839 0.05636695 -0.11732355 0.43316394
0.07938552 0.604159 0.067624174 0.069779955 0.042479683 -0.6869543 0.070809774 -0.020363368
0.12321971 0.08116366 -0.17560387 0.061376564 0.021564502 -0.043124802 0.29221293 -0.72881216
0.07880982 -0.3648611 0.06327171 0.13236792 0.25875956 -0.022632986 0.038891055 0.07874786
0.029240526 0.02830468 0.045843758 0.05494646 -0.030935228 -0.017643914 -0.049898617 -0.08116368
-0.04982538 -0.10965118 -0.06801314 0.11939237 0.062838025 -0.010059714 0.008905548 0.008260801
-0.00353169 -0.053484764 0.018236203 0.08123312 -0.02390948 -0.12715457 0.08459497 0.007064744
-0.032216746 -0.010367139 -0.1102763 -0.013851717 0.075050645 0.003652133 -0.06250984 -0.08959731
-0.02399259 -0.017052658 0.008458823 0.08174416 0.0047323406 -0.11462951 -0.055524744 -0.017673984
0.04384417 -0.08078151 -0.07587144 -0.06568532 0.022339594 0.031845734 -0.12282225 -0.027198745
0.075022094 0.0057972446 -0.118964754 -0.09172323 -0.040754195 -0.127435 -0.016142823 -0.08024509
-0.14502214 -0.085883476 -0.017930754 0.059435226 -0.14371271 0.013412201 0.024696415 -0.034167495
-0.05602427 -0.07970146 0.07330302 -0.012462933 0.027802568 -0.015400194 -0.058342405 0.073767476
-0.055304654 -0.01813985 -0.13092735 -0.085477844 -0.14684154 -0.0344266 -0.04098691 -0.009345281
0.028175041 -0.012607592 -0.04774171 -0.05913917 -0.1285842 -0.027269274 0.038798787 0.08718596
-0.009229209 -0.00995335 -0.029064663 -0.14676954 -0.13554761 -0.01881236 -0.0500645 0.042523257
-0.122451186 -0.103834726 -0.07280451 0.04612463 -0.06906135 0.007968702 0.054701082 0.108963735
0.0028422251 -0.08738274 -0.019218422 0.011746861 0.103869274 -0.12197899 0.07418238 -0.069665484
-0.07406463 -0.10787821 0.018152509 0.08083355 -0.021818217 0.062340148 -0.015758429 -0.007736347
0.014768262 -0.10769193 0.027910896 -0.023883626 -0.02611817 0.029579438 -0.025430515 0.054647096

fc2.bias f4 [32]
00000000: fc00 2c3f d2bf 36bd 1596 a63d b160 3abd
00000010: 6e0b 87bd 2851 10bc 1e0a a6bd 5848 68bd
00000020: c0b2 c5bd 100c a4bd be60 723c 9741 7cbd
00000030: 9ab0 863c b6a7 b2bd 2f13 b1bd a7ee f9bc
00000040: 1ed1 b0bd 7ed1 f6bc 39b7 1a3f 3b0b 3ebc
00000050: 05de 0ebd 8e2c fcbc 69e2 b6bd b811 14be
00000060: c43a c8bd ddcf 893d dcbf bd3e 00bb e0bb
00000070: c3d3 36bd 54c5 d4bc beb3 9cbd a928 c43e
0.67189 -0.044616528 0.081340946 -0.04550237 -0.06593977 -0.008808412 -0.081073985 -0.056709617
-0.096532345 -0.08010113 0.014793573 -0.06158599 0.016441632 -0.087233946 -0.08646237 -0.030509306
-0.08633636 -0.03012919 0.60435826 -0.011599357 -0.034879703 -0.030782964 -0.08929903 -0.14459884
-0.09776834 0.067291 0.3706044 -0.0068582296 -0.044635545 -0.025973 -0.076514706 0.3831227

fc3.weight f4 [2, 32]
00000000: 453a e0bd 46e4 dbbd b019 eebd cac8 bebb
00000010: 4718 413b 3c0d 48be 8029 903b 1835 e73c
00000020: 41f6 c1bb b7f8 f53d 41ac 5b3e 3efb 293d
00000030: f7d1 d7bb fe78 adbd 3409 adbd 9f3c 03bd
00000040: 39a7 90bd eb55 8ebd 947e ab3d d342 b9bc
00000050: 7ea4 683e 279b 813e 6a27 6cbb 4107 14bc
00000060: 3f37 be3d 7924 10be 0089 203e 6451 02bd
00000070: 6e5a b3bd 2842 8abd c2c8 bbbb 4aaf ad3d
00000080: 8396 be3e c9e8 4c3e d860 47bd a299 2ebd
00000090: 2b6a 7fbd d5fe eb3a d0ae 3abd 787c 23be
000000a0: db5f 4e3c dd70 b7bd 5a6e 4cbd bf08 163d
000000b0: b4a4 2dbe 4959 7abb cb80 843d 706d 013e
000000c0: c2c7 f03c 5851 42bd 8b1d 893e f76a 6bbd
000000d0: e374 bfbc 5283 033d 0923 a7bc 1875 4c3d
000000e0: f183 693c bade ac3d 5eae e03d a0c6 11bc
000000f0: c3d6 973b 9379 e1bb 55c8 47bd 9d9d 103e
-0.10948614 -0.10736899 -0.11625993 -0.0058222758 0.0029463933 -0.19536299 0.0043994784 0.02822356
-0.0059192483 0.12010329 0.21452428 0.04149937 -0.006586309 -0.08470343 -0.08449021 -0.032040235
-0.07063145 -0.06949981 0.08373752 -0.022614872 0.22718999 0.25313684 -0.0036034235 -0.009034933
0.09287881 -0.14076413 0.15677261 -0.0318159 -0.087574825 -0.067508996 -0.0057307193 0.08480699
0.37224206 0.20010675 -0.04867634 -0.042626984 -0.06235711 0.0018005023 -0.04557687 -0.1596545
0.012596096 -0.08957074 -0.049909927 0.036629435 -0.1695736 -0.003820019 0.06469878 0.12639403
0.029392127 -0.047440857 0.26780352 -0.057475056 -0.023371166 0.03210766 -0.020402448 0.049916357
0.014252649 0.08440919 0.10970758 -0.008897454 0.004633756 -0.006880948 -0.048775036 0.14122625

fc3.bias f4 [2]
00000000: 3038 4bbe 097e 413f
-0.19845653 0.7558294
